…
scale=0.5, seed=42, shear=0.0, show=False, show_boxes=True, show_conf=True, show_labels=True, simplify=True, single_cls=False, source=None, split=val, stream_buffer=False, task=detect, time=None, tracker=botsort.yaml, translate=0.1, val=True, verbose=True, vid_stride=1, visualize=False, warmup_bias_lr=0.1, warmup_epochs=3, warmup_momentum=0.8, weight_decay=0.0005, workers=2, workspace=None\nOverriding model.yaml nc=80 with nc=6\n\n                   from  n    params  module                                       arguments                     \n  0                  -1  1      1856  ultralytics.nn.modules.conv.Conv             [3, 64, 3, 2]                 \n  1                  -1  1     73984  ultralytics.nn.modules.conv.Conv             [64, 128, 3, 2]               \n  2                  -1  3    279808  ultralytics.nn.modules.block.C2f             [128, 128, 3, True]           \n  3                  -1  1    295424  ultralytics.nn.modules.conv.Conv             [128, 256, 3, 2]              \n  4                  -1  6   2101248  ultralytics.nn.modules.block.C2f             [256, 256, 6, True]           \n  5                  -1  1   1180672  ultralytics.nn.modules.conv.Conv             [256, 512, 3, 2]              \n  6                  -1  6   8396800  ultralytics.nn.modules.block.C2f             [512, 512, 6, True]           \n  7                  -1  1   2360320  ultralytics.nn.modules.conv.Conv             [512, 512, 3, 2]              \n  8                  -1  3   4461568  ultralytics.nn.modules.block.C2f             [512, 512, 3, True]           \n  9                  -1  1    656896  ultralytics.nn.modules.block.SPPF            [512, 512, 5]                 \n 10                  -1  1         0  torch.nn.modules.upsampling.Upsample         [None, 2, 'nearest']          \n 11             [-1, 6]  1         0  ultralytics.nn.modules.conv.Concat           [1]                           \n 12                  -1  3   4723712  ultralytics.nn.modules.block.C2f             [1024, 512, 3]                \n 13                  -1  1         0  torch.nn.modules.upsampling.Upsample         [None, 2, 'nearest']          \n 14             [-1, 4]  1         0  ultralytics.nn.modules.conv.Concat           [1]                           \n 15                  -1  3   1247744  ultralytics.nn.modules.block.C2f             [768, 256, 3]                 \n 16                  -1  1    590336  ultralytics.nn.modules.conv.Conv             [256, 256, 3, 2]              \n 17            [-1, 12]  1         0  ultralytics.nn.modules.conv.Concat           [1]                           \n 18                  -1  3   4592640  ultralytics.nn.modules.block.C2f             [768, 512, 3]                 \n 19                  -1  1   2360320  ultralytics.nn.modules.conv.Conv             [512, 512, 3, 2]              \n 20             [-1, 9]  1         0  ultralytics.nn.modules.conv.Concat           [1]                           \n 21                  -1  3   4723712  ultralytics.nn.modules.block.C2f             [1024, 512, 3]                \n 22        [15, 18, 21]  1   5587426  ultralytics.nn.modules.head.Detect           [6, 16, None, [256, 512, 512]]\nModel summary: 210 layers, 43,634,466 parameters, 43,634,450 gradients, 165.4 GFLOPs\n\nTransferred 589/595 items from pretrained weights\nFreezing layer 'model.22.dfl.conv.weight'\n\u001b[34m\u001b[1mAMP: \u001b[0mrunning Automatic Mixed Precision (AMP) checks...\n\u001b[34m\u001b[1mAMP: \u001b[0mchecks passed ✅\n\u001b[34m\u001b[1mtrain: \u001b[0mFast image access 
…
